data.pth (torch, 5015 bytes, 6 tensors)

d1.weight f4 [8, 54]
000000 8c 11 ac 3e 10 cf 5b be f7 ba b3 be 79 32 af be
       0.33607137 -0.21465707 -0.3510358 -0.34218195
000010 db 56 4d be 14 8c 52 3f 56 2a 99 bc 86 25 b5 be
       -0.20052664 0.8224499 -0.018696945 -0.3538019
000020 db fb a7 be 74 58 8c be b4 c1 2d be 2f 2e 1a 3c
       -0.32809338 -0.27411234 -0.16968423 0.009410425
000030 5c 1b 20 3e 2e 13 94 3d 1d 98 0f bd 83 50 6d bc
       0.15635437 0.07230221 -0.035057176 -0.0144845275
000040 81 c6 86 be 31 6b 10 3f 77 1e f4 3e 3d 9c dd be
       -0.2632332 0.5641356 0.47679493 -0.43283263
000050 d1 68 b9 3e c1 93 dd be 7f 91 dd be 1b 18 f3 be
       0.3621278 -0.4327679 -0.43275067 -0.4747933
000060 5b 4d 98 bc 7d 5f 2c be 49 24 08 3f 8d cf b1 be
       -0.018591573 -0.16833301 0.53180367 -0.3472866
000070 c3 40 e8 3e 84 2c 91 be fa 1c 0f 3f 8a 29 56 bd
       0.4536191 -0.28354275 0.5590359 -0.05228571
000080 e7 22 86 3e ee 72 ca be ae 05 0e be 49 a6 aa 3b
       0.26198503 -0.3954081 -0.13869354 0.005207811
000090 83 47 a0 3e 0b b1 24 be 5e 0c 33 be 10 b5 bf bd
       0.3130456 -0.16083162 -0.17485186 -0.09360707
0000a0 04 57 0c 3f 64 ec e5 3e 1d 06 cd 3d d7 ea 72 bd
       0.54820275 0.44906914 0.10010932 -0.059305992
0000b0 76 2e 5f be c4 c9 4c be f8 c5 47 3f f1 54 7c 3e
       -0.21795067 -0.19998842 0.7803645 0.24641778
0000c0 ff 6f d9 3d 62 13 02 3f 5f 34 10 3e 94 1e bf 3e
       0.10617065 0.50810826 0.14082478 0.37328017
0000d0 97 c6 11 be 2d 71 83 3e b8 fb f9 3e aa 11 cc be
       -0.14235912 0.25672284 0.4882486 -0.39857227
0000e0 52 89 eb 3e 7a 07 dd bc 5f fd d1 3e 79 f6 f3 be
       0.46003205 -0.026981104 0.4101362 -0.4764898
0000f0 ab f6 0f 3f 76 59 98 3e ac 64 e9 3e d4 35 05 3f
       0.5623576 0.29755753 0.4558462 0.5203526
000100 ac 9c 22 3e 4b 45 a2 be 93 98 fd 3e 2f 68 83 be
       0.15880078 -0.3169349 0.49530467 -0.25665423
000110 0e 13 0e be c7 ab b5 be 1c 35 cc 3d 2f ec f3 be
       -0.13874456 -0.35482618 0.09971067 -0.4764113
000120 4c 11 ba 3e 81 0b 40 3e 17 10 81 3e d0 93 63 3e
       0.3634132 0.18754388 0.25207588 0.22224355
000130 69 7e 67 3e 1b aa 81 be 22 9d 03 3f 64 e0 da bc
       0.22606815 -0.25325093 0.5141164 -0.026718326
000140 e9 37 f7 3e 4f 7e dc be 5f 62 af 3e 0d 00 a3 be
       0.48284844 -0.43065116 0.3425474 -0.31835976
000150 48 bd c0 be e2 a5 70 be 85 d6 b4 3e 05 97 d5 3e
       -0.3764441 -0.2350078 0.35319915 0.4171678
000160 4c e6 61 bd 0b cd c2 be 61 28 2e 3e 30 7b 0b 3f
       -0.05515127 -0.3804706 0.17007591 0.54484844
000170 c1 01 1b 3f e4 f4 e0 3e 06 97 e8 be de fb cd 3e
       0.6054955 0.43936837 -0.45427722 0.40231222
000180 3a b3 18 be 82 98 a2 bd 65 96 d5 3e 62 18 22 be
       -0.1491212 -0.07939245 0.41716304 -0.15829614
000190 fe ab 31 3f f1 60 06 3e fd f5 d3 3e b8 a3 11 3f
       0.69403064 0.13122918 0.41398612 0.5689044
0001a0 cd d8 c9 be 38 df 52 3e ae 1b 34 3f 34 30 ba 3e
       -0.39423218 0.20592964 0.70354736 0.363649
0001b0 4f e2 8a be 53 64 ff be 78 49 d2 bd fc e4 fe 3e
       -0.27125785 -0.4988123 -0.10267919 0.49784076
0001c0 d2 74 16 3f 22 fa 4f be 3b 17 9c bd ab 9a cf be
       0.58772004 -0.20310262 -0.07621618 -0.4054769
0001d0 9d 51 44 be 1c 84 63 be 7e ec e0 3e 70 12 25 3f
       -0.19171758 -0.22218364 0.4393043 0.6448126
0001e0 56 84 a4 3e 2d 39 d5 3e a0 fa 4e be 18 18 af 3e
       0.32132214 0.41645184 -0.20212793 0.3419807
0001f0 ab 20 07 3f 83 3e 8b be 2a 45 de 3e 23 85 41 3f
       0.5278422 -0.2719613 0.43412143 0.75593776
000200 b9 aa c3 be 6e 4d 27 3f 37 e0 44 3f 50 9a 31 3f
       -0.3821619 0.65352523 0.76904625 0.6937609
000210 7b df dd 3e 7f d5 e2 3e 41 a7 b8 3e 9d 10 b2 be
       0.43334565 0.4430351 0.36065105 -0.347783
000220 d6 c2 97 3e f8 f8 c4 be 4c 97 60 bd 77 03 e0 3e
       0.29640836 -0.38471198 -0.054831788 0.43752643
000230 c5 b4 60 3d f7 3c 2f be 17 76 8f be a0 3a f6 3e
       0.054859895 -0.171131 -0.28019783 0.48091602
000240 50 12 97 3e 30 ed 8b be 01 10 bf 3d 87 d1 1e be
       0.2950616 -0.27329397 0.093292244 -0.15509616
000250 e2 71 a2 3b 90 d1 df 3e 25 dd b4 3e da c1 c6 bd
       0.0049574235 0.4371457 0.3532497 -0.09704943
000260 73 50 e5 3e d6 f3 81 be 12 29 55 bf e2 8e 37 be
       0.4478794 -0.25381345 -0.83265793 -0.17925599
000270 b9 e7 f7 3e 75 1a 28 3f 34 c5 0a 3f 3e 13 cb 3e
       0.48418978 0.6566537 0.5420716 0.39663118
000280 af f6 71 bd 9f 08 9e 3d 3e 93 02 3f 2a 41 a7 bc
       -0.059073146 0.07716488 0.51005924 -0.020416815
000290 99 f6 e8 3d b6 0d 92 bc 51 20 84 3e f0 a2 9f 3e
       0.1137516 -0.017828804 0.25805905 0.31179
0002a0 3e 98 97 3e 95 99 c0 3d 1d c1 0e 3e 8f 44 c2 3d
       0.2960834 0.094042934 0.13940854 0.09485733
0002b0 66 6e 24 bd e0 c7 8a be ab 68 ec 3d 13 44 51 be
       -0.040144347 -0.27105618 0.11543401 -0.20436125
0002c0 43 94 1d be ac 26 af be bf c8 ee 3d ed 65 e4 3e
       -0.15388589 -0.34209192 0.11659383 0.44609013
0002d0 65 24 1e 3e 98 41 80 3d d4 20 1d 3f 15 7d a6 3d
       0.15443571 0.06262511 0.61378217 0.08129326
0002e0 41 b7 fa 3c 39 24 79 be 2c 58 dc 3d ad bf 24 be
       0.03060496 -0.24330224 0.10759005 -0.16088744
0002f0 f7 a2 dc 3e de 28 ad be 6c 2e 22 3e d1 6d 9b be
       0.43093082 -0.33820242 0.15838021 -0.3035722
000300 12 ec a5 ba 37 9d 32 be bb a0 be 3e cf 5f 02 3e
       -0.0012658855 -0.17442785 0.37232003 0.1273186
000310 59 8d be 3d 9f 13 1c be 17 48 9d 3e 88 23 34 3e
       0.09304304 -0.1524186 0.30719063 0.17591679
000320 bf 89 83 3e 8f 32 93 3e 28 6b 55 3e 66 1e 8c 3e
       0.2569103 0.2874951 0.20841658 0.27366942
000330 bb 4f b2 bb 56 78 a1 bd b6 dc 41 bd 4d 27 cc bd
       -0.0054416335 -0.078842804 -0.047329627 -0.099684335
000340 bd 1c 8a 3f ca e9 03 3f 5c 23 b3 3e a2 dc f1 3e
       1.079002 0.5152861 0.34987915 0.47238642
000350 d5 ca 24 be 43 9d be 3e 66 62 9b 3e cf 57 a5 3e
       -0.16093 0.37229356 0.3034851 0.32293555
000360 28 1f 52 be c4 99 c2 3e aa 7a 40 be 53 63 c6 3e
       -0.20519698 0.3800794 -0.18796793 0.38747653
000370 5d a6 9f 3e 0d 05 8f 3e 93 5d 0a be d0 e5 90 be
       0.31181613 0.2793354 -0.13512258 -0.28300333
000380 d7 39 b6 bd 18 49 83 be 02 3b 84 3e ac be e4 3e
       -0.08897751 -0.25641704 0.2582627 0.4467672
000390 4f 5f b5 3e 8f 64 38 3e 4c b6 99 3e d8 70 c1 3e
       0.35424277 0.1800711 0.30021894 0.37781405
0003a0 e3 84 7f 3e f0 f5 64 3e a8 9a 49 3e 86 2f f0 3e
       0.24953036 0.22359443 0.19687903 0.46911258
0003b0 a9 ab c0 be bd c4 32 3f 20 4f e7 3e 7d 13 0b 3f
       -0.37630966 0.6983145 0.45177555 0.5432661
0003c0 01 ec 99 3e 48 4f 59 3e fa 3f ff 3d 01 62 f2 3e
       0.3006287 0.2122165 0.124633744 0.47340396
0003d0 d8 bf 9c be b0 80 bc 3e 80 1e 94 3e 17 4a db 3e
       -0.30615115 0.3681693 0.2892952 0.42829964
0003e0 6f 77 34 be 59 3b 26 be fd 8d 09 3f a4 52 60 3e
       -0.17623685 -0.16233577 0.5373228 0.21906525
0003f0 5c dd 82 be 5b 43 5f be f3 fa 70 be a2 9e ba be
       -0.2555951 -0.21803038 -0.2353323 -0.36449152

d1.bias f4 [8]
000000 cd a5 dd 3e ba f0 f3 3e 8d 22 55 3f 5c 39 50 3f
       0.43290558 0.47644597 0.83255845 0.81337523
000010 28 42 4b 3f c7 5a 58 3f 05 51 87 3e d2 09 3a 3f
       0.7939782 0.84513515 0.26429 0.72671235

d2.weight f4 [8, 8]
000000 6d aa 7a 3d 39 bf cd be 40 f0 dc 3b 22 73 8e 3e
       0.061197687 -0.40184954 0.006742507 0.27822214
000010 df e8 d4 3d 55 0f a4 be b4 b5 6d bd 42 23 e4 bd
       0.10395979 -0.32042947 -0.058034614 -0.111395374
000020 ba 2a 7b 3f 64 31 9f be 26 44 22 3f 37 71 0a 3f
       0.9811207 -0.3109237 0.63385236 0.54079
000030 3f 18 54 3d c0 f5 11 bf bc a3 4c 3d 59 dd 8e 3f
       0.051780935 -0.5701561 0.049960837 1.11613
000040 36 86 b4 bc e9 02 01 3e 8e bd 85 be dc a9 16 3e
       -0.022036653 0.12598766 -0.2612118 0.14713234
000050 ff 8d e4 bd 21 48 31 be 5e 01 42 be 15 7e fe 3d
       -0.11159896 -0.17312671 -0.18945834 0.12426392
000060 45 56 92 3f 69 91 84 be 9e 87 83 3f 5e b2 c3 3e
       1.1432577 -0.2589219 1.0275762 0.3822202
000070 19 c3 e4 3e 2f cf 71 bf 56 03 8a bd 73 a4 93 3f
       0.44680098 -0.9445676 -0.067389175 1.1534561
000080 be ed ed be e9 3b 6b 3f cb a9 7d 3f 7a e3 1d 3e
       -0.46470445 0.9188829 0.9908721 0.15418807
000090 b2 5b 49 3f 42 3a 0d bf 6c ed 4a 3f c1 03 03 bf
       0.7865554 -0.5516702 0.7926853 -0.51177603
0000a0 f3 27 26 bf 60 9c ac 3f b9 8a 67 3f b8 97 76 3f
       -0.6490471 1.3485222 0.9044605 0.96325254
0000b0 82 84 36 be 47 00 0f 3f 98 d8 46 3f 0a 01 88 bf
       -0.17823985 0.558598 0.77674246 -1.0625317
0000c0 5e 00 17 bf 0c 22 60 bf 48 fb 21 3f 34 d7 e9 3d
       -0.58984935 -0.8755195 0.6327405 0.11418
0000d0 38 7d c4 3f 9c 14 4a 3f c2 b0 9b bf 31 06 65 3f
       1.5350714 0.789377 -1.2163317 0.8946257
0000e0 11 f4 b0 3f 98 51 5a 3f 0e 1c 52 bf 22 93 a0 3f
       1.3824483 0.8528075 -0.8207406 1.2544901
0000f0 b0 a2 06 bf d5 6a 9b 3f 6a 02 95 3f fc 3e 88 3f
       -0.5259199 1.2141978 1.1641362 1.0644221

d2.bias f4 [8]
000000 16 27 0c be 17 82 84 bc 75 81 5a be c3 56 5a 3e
       -0.13686785 -0.016175313 -0.21338446 0.2132216
000010 c4 98 91 3d f8 92 0d 3f 62 b9 6f 3f df f5 6f 3e
       0.07109216 0.5530238 0.93642247 0.23433636

d3.weight f4 [7, 8]
000000 e9 cb 81 be a2 69 b9 3e 38 f7 53 3e 3d f7 16 3f
       -0.25350884 0.36213404 0.20699775 0.58971006
000010 06 bf bc 3e c9 5f 94 bf 3b aa 74 3e 27 f4 b1 bf
       0.3686449 -1.1591731 0.23893063 -1.3902634
000020 11 32 29 be e3 d4 88 bf cb 1f 85 be 46 dc 9c bf
       -0.16523005 -1.0689968 -0.2600082 -1.2254722
000030 c5 fc 8b bf d5 6f c3 be d4 f6 44 3f d2 c3 af 3e
       -1.0936514 -0.3817126 0.7693913 0.34329087
000040 f0 ec a0 be b3 85 d5 3e e0 e3 ec 3d 79 6d 17 3f
       -0.3143077 0.41703567 0.11566901 0.59151417
000050 28 e0 b4 bf a7 9d 6d bf dc 29 25 3d 13 bc 6d 3e
       -1.4130907 -0.92818683 0.040323123 0.23216276
000060 19 89 f2 bd c1 cc ce be c3 36 8d 3e e6 9a 20 be
       -0.118425556 -0.4039059 0.27580842 -0.15684089
000070 3f 1a f8 3e 0d e2 47 3f 3b 00 f0 3e 48 11 86 bf
       0.48457524 0.780793 0.46875176 -1.0474024
000080 92 54 b6 be 3c b3 cf 3e 2e d9 50 be d6 2c 5f 3e
       -0.35611397 0.40566432 -0.20395347 0.21794447
000090 d6 91 08 3f 87 65 e4 bd f3 00 94 bf 44 18 ca bc
       0.5334753 -0.11152177 -1.156279 -0.024669774
0000a0 a1 da bd be d9 03 99 bf 06 19 aa be a4 93 a0 bf
       -0.37080863 -1.1954299 -0.33222216 -1.2545056
0000b0 05 bb 60 3f ed 23 ec 3e df 32 8f bf d7 e4 ac 3e
       0.8778537 0.4612116 -1.11874 0.3376834
0000c0 48 ec b6 be b3 4d e2 bd a6 e0 57 be 75 52 0f bf
       -0.35727143 -0.11049976 -0.2108179 -0.55985194
0000d0 fa 6e 83 bf 1b d5 39 3d 77 ef 43 bf 17 e0 64 3f
       -1.0268242 0.04536925 -0.7653727 0.89404434

d3.bias f4 [7]
000000 f1 16 8a be 51 6d ab 3d be ce 61 bd 7c 31 af 3c
       -0.26970628 0.0837046 -0.055128805 0.0213859
000010 b1 d7 f5 be 5b f8 0a ba a2 0a 47 be
       -0.48016122 -0.000530129 -0.1943765
