backend/backend/app/data.pth (torch, 5119 bytes, 6 tensors)

d1.weight f4 [8, 57]
000000 74 5c a3 3f da cf c2 3f 42 13 a9 3e 34 7c c9 3f
       1.276259 1.5219681 0.33022505 1.5741029
000010 17 03 ac 3f 7d c2 43 40 c2 2f 55 be 23 7b bd 3e
       1.3438443 3.0587456 -0.20819 0.37008008
000020 a0 96 fe 3e 34 71 f5 3e 3e 90 df 3f f0 31 72 3f
       0.49724293 0.4793793 1.7465894 0.9460745
000030 a9 d0 8f 3f 16 5d de 3e a7 da 97 3f 81 80 54 3f
       1.1235553 0.43430394 1.1863602 0.8300858
000040 e8 bb f2 3f 95 8d 72 40 7b 5f 9b 3f f2 ab 45 40
       1.8963594 3.7898915 1.2138513 3.0886197
000050 f8 e9 58 3f c2 e7 49 40 5d d9 4c 40 e7 57 fd 3f
       0.8473201 3.1547704 3.2007668 1.9792451
000060 b7 9e e6 3e 52 6f d8 3f 99 04 fc 3e 67 19 c0 3f
       0.45042965 1.6908972 0.49222258 1.5007752
000070 94 63 fd 3e 3c f4 ae 3f ae 07 e9 3f 28 67 f0 3e
       0.49490035 1.3668284 1.8205469 0.46953702
000080 1e a8 50 3f bd 49 92 3e 47 ca b9 3f c7 c4 02 3f
       0.81506526 0.28571883 1.4514855 0.5108151
000090 1e 4d 47 3f 3b 37 1e 3f 5d b9 04 3f ba d5 e5 3e
       0.77852046 0.61803025 0.5184534 0.44889623
0000a0 60 d1 13 be 42 16 3c 3b 32 97 f3 3f 19 cd 70 3f
       -0.14435339 0.002869979 1.9030516 0.94062954
0000b0 7f 89 d9 3e 98 88 8e 3f 92 19 36 3f ab 99 a2 3f
       0.42487714 1.1135435 0.7113277 1.2703146
0000c0 fa 0e df 3e bf 0d 84 3f 8b 6a d0 3f 9e b1 27 3f
       0.43566114 1.0316695 1.6282514 0.655054
0000d0 0e 94 0a 3f dc 9f 67 3f 28 38 97 3f e9 45 53 bd
       0.54132164 0.904783 1.1814013 -0.051580343
0000e0 4d 51 ac 3f de 15 15 40 7c e1 e6 3f 3e a4 4d 3f
       1.3462311 2.3294597 1.8037562 0.8032874
0000f0 a9 df ad 3f 05 1c 02 40 2f a6 96 40 f0 43 10 3e
       1.3583881 2.0329602 4.707786 0.14088416
000100 45 15 4d 3f e9 9c a6 3f 6b fb 54 3f 11 9c ba 3f
       0.8011058 1.3016635 0.83196133 1.4578878
000110 86 55 f7 3f 73 9e 14 40 65 e5 a2 3f 37 fb a3 3f
       1.9322975 2.322171 1.2726256 1.281104
000120 4e ad bf 3f d3 f9 a2 3f 1e 72 ab 40 2b 82 38 40
       1.4974763 1.273249 5.3576803 2.8829448
000130 dd a7 14 40 3a ef 04 40 df d1 13 40 a1 e9 16 40
       2.3227456 2.0771012 2.3096845 2.3580096
000140 02 e6 b2 3f 5a bd c5 3f 56 8a a3 3f 45 53 da 3f
       1.3976443 1.544841 1.2776592 1.7056662
000150 77 51 d0 3f 50 50 9c 3f 62 20 af 3f 13 b8 1f 40
       1.6274861 1.221201 1.3681757 2.49561
000160 c6 b9 bd 3f de 4e c5 3f ba 9a 74 3f 41 1e b4 3f
       1.4822319 1.5414693 0.95548594 1.4071733
000170 d0 da 6d 3e 9e bc ce 3f b4 d5 d6 3d 2c 06 a7 3f
       0.23228002 1.6151311 0.104899794 1.3048759
000180 f0 d3 a6 3f 50 bc ac 3d 22 ed 8c 3e 6d db 1d 40
       1.3033428 0.08434355 0.27524668 2.4665177
000190 a0 a0 51 40 1d e7 6c 3f db b7 a6 3f ca fd b1 3f
       3.2754288 0.9254015 1.3024858 1.3905575
0001a0 3b 20 a3 3f b5 26 20 40 80 c2 03 40 56 6b 0c 40
       1.2744211 2.5023625 2.0587463 2.1940513
0001b0 92 16 e5 3d 8e 3e fc 3f 32 68 bf 3f 22 e3 33 40
       0.111859456 1.970659 1.4953673 2.810738
0001c0 64 16 b2 3d 28 85 5c 40 e2 cb d2 3f fd 73 09 3f
       0.08695677 3.4456272 1.646847 0.5369261
0001d0 d2 07 ab 3f 5b 11 93 3f 59 d0 b3 3f 11 35 1e 40
       1.3361762 1.1489671 1.4047958 2.471989
0001e0 d0 1b 45 3f 98 5a 80 3f c6 47 bb 3f 9d 44 87 3f
       0.76995564 1.0027647 1.4631279 1.0567814
0001f0 ee d6 4e 3f 86 99 6e 3e b3 17 a1 3f 3a 54 1c 3f
       0.80796707 0.23300752 1.2585357 0.6106602
000200 57 a6 7a 3e 5c 87 92 be 22 b8 73 3f d0 ad 32 40
       0.24477516 -0.28618896 0.9520284 2.7918587
000210 6d 8d c1 3f 3b 2b ca 3f 9c 36 ad 3f b7 f6 bc 3f
       1.5121285 1.5794443 1.353229 1.4762791
000220 e1 77 c5 3f 81 0a db 3e 3a f1 37 3f 22 73 83 3f
       1.5427209 0.4278145 0.7185246 1.0269511
000230 57 42 85 3e 9a 6e 00 be 68 3f 0c 3f 9c 55 ae 3c
       0.26027176 -0.12542191 0.5478425 0.021281056
000240 86 4f b6 3f b0 f8 f4 3e 40 14 95 3f bf 72 9a 3f
       1.4243019 0.47845984 1.1646805 1.2066268
000250 9a a1 5a 3e f5 6e 21 3d a8 47 70 be 69 4f 25 3d
       0.21350709 0.039412457 -0.23464835 0.040358935
000260 c3 ad 17 3f 5e c3 b3 3f 65 b6 3b 3f a4 f2 0c 3f
       0.59249514 1.4043996 0.73325187 0.5505774
000270 94 5d af 3f c8 66 e4 3f 96 f2 b7 3e 54 3f b5 3d
       1.3700433 1.7843866 0.35927266 0.088499695
000280 fc 9a b2 3f 9a 92 f3 3c d2 b4 f7 3f f2 4a b3 3f
       1.3953547 0.029732991 1.9352057 1.4007246
000290 9c a4 8f 3f 93 79 82 bb fa 21 df 3c 81 58 2f be
       1.122211 -0.003981778 0.027237881 -0.17123605
0002a0 eb 1c b6 3f 0e 42 1c 3f 23 c9 0b 40 e0 6d dd 3f
       1.4227575 0.6103829 2.1841514 1.7299156
0002b0 fe 71 3d 3f b2 39 90 3f 5c c9 c0 3f 73 dd e2 3f
       0.74002063 1.1267607 1.506145 1.7723831
0002c0 e3 95 7f 3f 4f 26 2f 3e b5 16 7a 3f 3e f8 94 3f
       0.99838084 0.17104457 0.976909 1.1638258
0002d0 97 01 64 3f 4a 37 ca 3f a8 6f b2 3f 22 d2 a0 3f
       0.89064926 1.5798123 1.3940325 1.2564127
0002e0 b3 a7 84 3f 7c e1 9c 3e 99 a5 90 3f e3 af cd 3f
       1.0363678 0.3064078 1.1300536 1.6069301
0002f0 ce 78 f6 3f f6 6e bc 3f 35 1c 24 40 37 8b a6 3f
       1.9255617 1.4721363 2.5642216 1.3011235
000300 4a 55 28 40 79 66 2d 40 e6 f4 d6 3f 1c c4 6a 3f
       2.6302056 2.7093794 1.6793487 0.9170549
000310 86 39 c9 3f a4 38 a3 3e fe 55 78 3d 45 70 6f 3e
       1.572068 0.3187915 0.060628884 0.23382671
000320 d9 1c 52 3e be 6e 03 3f 8d 66 87 3f 09 15 9a 3f
       0.20518817 0.51340854 1.0578171 1.203767
000330 a8 1c 9a 3f f7 53 6c 3e a6 88 22 3f f9 a1 9a 3f
       1.2039995 0.23078905 0.6348976 1.208068
000340 22 55 16 3f 59 ce aa 3e ad 2c 87 3f f1 65 41 3e
       0.5872365 0.33360556 1.0560509 0.18886544
000350 64 2e 87 3e 0a 4a 25 3f 6d f5 c7 3f 80 89 64 3f
       0.2640258 0.645661 1.5621773 0.8927231
000360 e7 f0 3c 3e 37 42 d1 3f c3 2a 91 3e 54 ac 03 40
       0.18451272 1.6348332 0.28352937 2.057393
000370 5c ad a3 3f 4d b6 c9 3f d4 c7 0a 3f a8 9a 3a 3e
       1.278728 1.5758759 0.54211164 0.18223059
000380 4f 84 9f 3f a1 b1 c4 3f 00 63 0d 3e 3b 83 0d 40
       1.2462252 1.5366708 0.13807297 2.2111347
000390 73 77 f9 3f c6 87 07 40 c0 7d e9 3f 24 97 c0 3f
       1.9489578 2.117662 1.8241501 1.5046124
0003a0 b1 b5 25 40 d4 0d e6 40 27 ba 10 3e a8 c0 e6 3f
       2.5892146 7.189188 0.14133511 1.8027544
0003b0 95 91 04 40 06 f5 d6 3f e2 65 e2 3f 84 c1 c8 3f
       2.0713856 1.6793525 1.7687342 1.5684056
0003c0 d8 e2 55 40 07 73 9f 3f aa 48 fd 3f be 53 88 3f
       3.3419704 1.2456979 1.97878 1.0650556
0003d0 af b3 ff 3f 03 e8 fa 40 50 aa 36 40 bc bd 3c 40
       1.997671 7.8408217 2.854145 2.9490805
0003e0 c5 4a b0 3f 30 c9 45 40 fb 92 49 40 19 76 c9 3f
       1.3772818 3.0904045 3.149596 1.5739166
0003f0 e0 b3 9f 3f 52 60 d4 3f 4f 51 df 3f 95 2e dc 3f
       1.2476768 1.6591895 1.7446688 1.7201716

d1.bias f4 [8]
000000 1d fd 32 40 e1 40 a4 40 9a 8c 63 40 e2 70 6d 40
       2.7966988 5.13292 3.5554566 3.7100148
000010 15 8c a4 40 77 c3 98 40 31 c0 79 40 9f f2 13 40
       5.1421 4.7738605 3.9023554 2.3116834

d2.weight f4 [8, 8]
000000 fa a3 1d 3f db 4b 5e 40 68 35 27 40 89 e0 ef 3f
       0.61578333 3.4733799 2.6126347 1.8740398
000010 18 73 3d 40 23 e6 8e 3f 67 48 2e 3f 01 e4 f3 3f
       2.9601498 1.1163982 0.6807923 1.9053956
000020 5b 7b 94 3f 4b 66 19 40 ef 70 b9 3e 0d 56 86 bf
       1.1600145 2.3968685 0.36218974 -1.0495011
000030 26 55 5b 3f 26 de 1f bd f3 f9 96 3f 85 cf ad 3f
       0.856768 -0.039030217 1.1795028 1.3578955
000040 d9 0d b1 3f 0a 88 93 3f e3 1e a5 be 40 9f c6 3f
       1.3832351 1.1525891 -0.32250127 1.5517349
000050 06 93 23 3f 3e 3a d2 3f 56 c1 f2 3f aa d7 2e bf
       0.63896215 1.6424024 1.8965251 -0.6829783
000060 b5 1a 03 bf f5 55 93 3f 88 22 55 3f 51 45 99 3f
       -0.51212627 1.1510607 0.83255816 1.1974279
000070 f8 cf 40 3e 1e fe 19 be 35 49 c1 3f d6 16 c2 3f
       0.18829334 -0.15038344 1.5100466 1.5163219
000080 5c 40 bf 3f 6f 5d 5f 40 a4 0d 64 3f 30 bf 10 40
       1.4941516 3.4900777 0.89083314 2.2616692
000090 77 32 8b 40 1f 21 73 40 07 92 68 40 12 7a 14 40
       4.3499103 3.7988966 3.6339128 2.3199506
0000a0 94 c9 95 40 cb fe 8e 40 1a 99 80 40 58 e1 64 40
       4.6808567 4.4686027 4.018689 3.576254
0000b0 60 72 aa 40 ea d6 bb 40 e9 e7 37 40 14 8a 3d 40
       5.326462 5.8699846 2.8735297 2.9615526
0000c0 34 48 de 3f 3d 0a 01 40 ad 29 31 40 32 bc 38 40
       1.7365785 2.01625 2.7681687 2.8864865
0000d0 f2 38 ef 3f 6b ec 3a 40 90 14 a4 3f 8b ff a6 3f
       1.8689253 2.9206798 1.2818775 1.3046736
0000e0 03 8a 33 40 36 3b 2b 40 66 a9 a9 3f b5 2c e7 3f
       2.8052986 2.675489 1.3254821 1.8060519
0000f0 88 84 67 40 b8 e8 2d 40 93 34 44 40 fe 6f d1 3f
       3.617464 2.717329 3.0657089 1.6362302

d2.bias f4 [8]
000000 e7 00 82 3f 4e 24 3c 3f 7d 3a 27 3f 2a f1 7a 3d
       1.0156525 0.73492897 0.6532362 0.06126515
000010 eb ae fd 3f 1d dc 2a 40 03 dc 96 3f c1 49 5c 3f
       1.9819006 2.6696846 1.1785892 0.8605004

d3.weight f4 [7, 8]
000000 94 e9 0c c0 fa 73 8e bf 92 c6 c2 3e f5 1e 17 3f
       -2.2017565 -1.1129143 0.38042122 0.5903161
000010 4c dd 24 be 98 7a be c0 c0 28 0b bf 2d 40 24 c0
       -0.16100043 -5.952465 -0.54359055 -2.566417
000020 1f 94 03 c0 51 9c a3 3e b2 a0 6b be 66 5a c4 bf
       -2.0559156 0.31955197 -0.23010519 -1.5340087
000030 d4 92 84 c0 4a 26 65 c0 e0 c9 08 c0 28 f0 b3 be
       -4.1429234 -3.580462 -2.1373215 -0.35144162
000040 df 34 90 bf 07 be d8 3e 14 44 39 c0 aa 4c 21 c0
       -1.1266135 0.4233248 -2.8947802 -2.5203042
000050 c7 3e 90 c0 72 d2 81 bf f9 30 da bf 7c c8 83 c0
       -4.5076632 -1.0142348 -1.7046195 -4.118223
000060 c2 80 10 c0 a5 b3 1c c0 c5 10 0b 3f e6 1a a3 bf
       -2.2578588 -2.4484646 0.54322463 -1.2742584
000070 41 9d 85 c0 96 0a 05 c0 4b 97 06 3e 87 f6 80 c0
       -4.175446 -2.078771 0.13143651 -4.0300937
000080 a4 ad 88 bf 7f a6 72 3d 68 ec f2 bf 95 04 58 bd
       -1.0677991 0.059240814 -1.8978395 -0.052738745
000090 61 a8 b3 bf 45 b9 7c c0 e1 43 25 c0 ea 4a 41 c0
       -1.403576 -3.948808 -2.582268 -3.0201974
0000a0 c0 37 12 be 58 b3 5b c0 59 3f 3d c0 8e 93 fb bf
       -0.1427908 -3.4328213 -2.9569914 -1.9654405
0000b0 4c 1a 3a c0 6a e0 82 bf e0 39 e1 3d d9 1f e4 c0
       -2.907855 -1.0224736 0.10997367 -7.1288877
0000c0 ff b2 81 bd ad 0f 83 bf 78 47 bc bf 18 f4 96 3f
       -0.06332969 -1.0239159 -1.470931 1.1793242
0000d0 fe 57 6d c0 8a 92 62 c0 06 e8 8c be 1e e0 73 c0
       -3.7084956 -3.540194 -0.2752077 -3.810554

d3.bias f4 [7]
000000 ed d9 92 be 44 67 e4 bd fb ae 56 3e cb 38 6a 3d
       -0.2868189 -0.11152509 0.20965187 0.05718307
000010 4a 91 01 be 4f 9c f8 3d 58 9b 75 be
       -0.1265308 0.121391885 -0.2398504
